trained_models/vae_pretrained/encoder_backup.pt (torch, 41061 bytes, 6 tensors)

weight f4 [32, 12, 3, 3]
00000000: 9454 d93d 744d a23d 7fca 153c 8330 483d
00000010: 1177 8d3d 01a9 1e3c 4dd0 093d 4838 24bc
00000020: 013a 94bd 0cf3 a8bc f37f 903d 5e6c be3c
00000030: 8727 f6bc 0587 a03d 9d14 d63d faa1 333d
00000040: e95a 85bd 70b3 7a3d ca53 d2bd a758 b7bd
00000050: 6a86 f93c ebee d0bc 434c 29bc cae7 1d3d
00000060: 5040 1dbd 39fc 79bb 4b04 cd3b dfae 873d
00000070: 45d1 c03d 4242 853d d748 5f3d a9ed 24bc
00000080: dfab 8d3d 44c4 913c 38ae 0c3d 2599 523d
00000090: 17c4 7dbd 2138 df3d 0a81 8c3d c32d bc3d
000000a0: 9266 cebc c8d1 003c bac8 243d 7ee0 453c
000000b0: ff60 fbbc 3a43 20bd 2605 c7bd ff40 82bd
000000c0: 9aa9 6bbd f562 88bd e468 6ebd 3d40 27bd
000000d0: 052d b0bd 2bda b23d 89b6 143d 8e34 b93d
000000e0: e9d4 c93d 86e7 29bd 3dfb 023d 557b 873d
000000f0: b167 ab3c 3f97 2b3d 6302 53bd f03b b73d
00000100: a64b ea3d fe33 cf3d a624 303d 2a03 223d
00000110: d79d 043e 2538 05bc 4f15 723d 672a ad3d
00000120: 2432 9a3d 04e0 b23c 1136 16bd 2d16 52bd
00000130: 2ceb a3bb d84b 3dbd f9a0 303d 5365 1cbc
00000140: cda0 1bbd 6376 e33d 5516 ee3c dc25 7dbd
00000150: f371 593c dd73 693d 06a4 4fbd c284 adbc
00000160: d9a8 9a3d a82f ab3b a2da 9abc e601 203d
00000170: 350f 83b9 1651 4f3d 2336 d53d f0a8 ba3d
00000180: f07c a63c 270b 0a3e 2ea5 b53d 0807 913d
00000190: 3f38 b13c 94c6 13bd f5a6 993d b3a9 803d
000001a0: 43b7 573d 817b 463c 1fb7 553d 71fd 9e3c
000001b0: c306 623d 016c ebbc ba29 4f3c 5e99 0fbd
000001c0: ee3d 00bd 5255 813d 4099 d9bd 8c5f 0fbd
000001d0: 9733 ce3c 46b6 473d 02a1 863a 4ae3 84bc
000001e0: 4247 a5bc 35b7 c63c c907 343d 907d 62bd
000001f0: 6d54 333c 2200 d3bd ba20 653b 8ce3 5abd
00000200: 010f 3eba e7bd 62bd 15ab bcbd 2fa5 b4bd
00000210: 6719 92bd 389c 4fbd 1a83 d6bd e6a2 73bd
00000220: 5155 843d 572c 93bd 0c7c e3bd 45d8 82bc
00000230: 541e bdbb 5030 a2bd d8ce 0f3d 6b04 96bd
00000240: 1f73 1939 8d0c 933d 5783 cdbd 55de 31bd
00000250: b946 a2bd 451e 923d 6ceb e0bd bb0a 2d3d
00000260: c412 7d3c 5bbe bd3c 6bf3 afbc fe3f 7b3c
00000270: 50bf febd 6a63 203d a921 cdbd 461d 86bc
00000280: 1b1c 1c3c f6a8 11be 7953 0e3d f677 93bc
00000290: 46b6 bbbd 7486 583d 87d3 483d 480f ebbd
000002a0: 8570 cbbd df4f a6bd 52e5 d4bd 70f3 033d
000002b0: 97ea 32bc 928e 4abd 0505 223d 53e1 a9bd
000002c0: 3424 d6bd 578f 6cbd 794d c6b9 ea7e 933b
000002d0: 2fa5 113d a59b 173d 2280 9c3c 2209 2b3d
000002e0: 6982 44bd 9c57 9fbc 6d0e 0ebe 9e98 02bd
000002f0: a197 163d 8389 24bd 8d7c 66bd 1dd4 d23c
00000300: 500b adbb 771f 923c 084d 773d 3e3f b9bd
00000310: ea06 87bd c483 07bd d90d 8dbc 800e c1bd
00000320: 27e1 40bc f5c4 42bd c4d7 33bd 5f9d dfbd
00000330: eb18 4ebd abad 42bc 3860 ba3b 4ffa 103d
00000340: 2465 3dbd 7426 22bc 6bd8 cebd c2bb 8ebc
00000350: ec66 03be abbe bdbd 9664 a5bd c8c1 fe3b
00000360: baf1 8cbb 1b93 77bc d81c 473d 4076 863d
00000370: 3dad de3c 7b68 6e3d 2a1e bf3d ebcc d5bc
00000380: c5d1 e83d 6563 88bd d973 e63b f26e 443b
00000390: 299e 953c 5499 f5bc 2bd4 e7bc b6b4 27bc
000003a0: 2ff4 a2bc ca76 71bc 2128 b23d c749 d53c
000003b0: 6608 b53d f7f9 01bd a626 a93d 2303 443d
000003c0: 74e4 0cbd f257 9cbc ffef 023e c01b 4a3d
000003d0: 4a16 af3d 0f8e 8c3c e78c de39 42d3 c63b
000003e0: 0b3f 683d e851 f83d 4d94 97bb 2ea8 16bd
000003f0: c546 80bb 1e26 9cbd 4b3d 93bd bf64 60bd
0.10611835 0.07924929 0.009142517 0.04887439 0.06907476 0.009683848 0.033645917 -0.010023184
-0.07237626 -0.020623706 0.070556544 0.023245033 -0.030048145 0.07838253 0.104531504 0.043855645
-0.0651148 0.06120628 -0.10269888 -0.08952456 0.030459601 -0.02550455 -0.010333124 0.03855113
-0.03839141 -0.0038144721 0.0062566153 0.06625151 0.09414915 0.06506778 0.054512825 -0.010066428
0.069175474 0.017793782 0.034345835 0.05141558 -0.061954584 0.108993776 0.0686055 0.09188416
-0.025195394 0.007862516 0.04023049 0.012077449 -0.0306859 -0.039126612 -0.09717779 -0.06360053
-0.05753479 -0.066594996 -0.0582055 -0.040832747 -0.08602337 0.087330185 0.03630689 0.09043227
0.098550625 -0.041480564 0.03197788 0.066153206 0.020923467 0.041892286 -0.051515948 0.08946979
0.1144021 0.101173386 0.0430037 0.0395538 0.12950836 -0.008131062 0.059102353 0.08455353
0.07529095 0.021835335 -0.036672655 -0.05129068 -0.0050024 -0.04621491 0.043122265 -0.009545642
-0.03799515 0.11106565 0.029063383 -0.061803684 0.0132717965 0.05699526 -0.050693534 -0.021181468
0.075517364 0.005224187 -0.01890308 0.03906431 -0.00024997597 0.05061444 0.104107164 0.091142535
0.020323247 0.13480817 0.08869396 0.07081419 0.021633266 -0.03607805 0.07502548 0.062823676
0.052665006 0.012114407 0.05217659 0.01940796 0.05518223 -0.028738024 0.012644226 -0.03505837
-0.03130906 0.06315102 -0.10624933 -0.03500323 0.025171084 0.048757814 0.0010271373 -0.016221661
-0.02017558 0.024257282 0.043952737 -0.055295527 0.010945422 -0.1030276 0.0034962134 -0.05343966
-0.00072501606 -0.055356886 -0.09212319 -0.08820569 -0.07133751 -0.05068609 -0.104742244 -0.059481524
0.06461585 -0.071861915 -0.111076444 -0.015972266 -0.0057714377 -0.07919371 0.03510937 -0.073250614
0.00014634103 0.07180128 -0.10034817 -0.043424923 -0.079236455 0.0713468 -0.10982403 0.04224656
0.015446369 0.023162058 -0.021478375 0.015335081 -0.12438834 0.03915731 -0.10016186 -0.01637138
0.009528185 -0.1422461 0.034747574 -0.018001538 -0.09165625 0.0528626 0.049029853 -0.11477524
-0.09933571 -0.08120703 -0.10395302 0.032214582 -0.010920188 -0.049452372 0.03955557 -0.0829493
-0.10456124 -0.057753887 -0.00037823225 0.0045012133 0.035557922 0.03701367 0.019104067 0.041756757
-0.04797593 -0.019450955 -0.1387269 -0.03188383 0.0367657 -0.040170204 -0.056271125 0.02573591
-0.0052808896 0.01783727 0.060376197 -0.090452656 -0.06593116 -0.033084646 -0.017218517 -0.09426594
-0.0117724305 -0.047551114 -0.043906942 -0.10918688 -0.050316732 -0.011882226 0.0056877397 0.035394963
-0.046239033 -0.009896863 -0.10099872 -0.017423514 -0.1283223 -0.09264883 -0.08075826 0.0077745654
-0.004301277 -0.015110756 0.048611492 0.06565523 0.027182216 0.05820511 0.09331925 -0.026098689
0.11368135 -0.06659583 0.007032853 0.0029973355 0.018263893 -0.02998034 -0.028299412 -0.010235956
-0.019891826 -0.014737794 0.0869906 0.026036156 0.088394925 -0.031732526 0.08259325 0.047854554
-0.034397557 -0.019084904 0.12786864 0.04934287 0.08549173 0.017157583 0.0004244812 0.0060676644
0.056700747 0.121249974 -0.004625833 -0.036781482 -0.0039146864 -0.07624458 -0.07189425 -0.05478358

bias f4 [32]
00000000: 0e92 783d 076c 5f3e f36c 193e 5ce3 5d3d
00000010: 0e43 103e 608a 303e e3a9 f83d b30e 143e
00000020: baf7 6b3e 0499 443e 6d37 763e 45e0 2a3e
00000030: 8110 383e 45a7 663d 6b73 7a3d 1f8a cc3d
00000040: 5b72 803e 9b53 34be 0422 d93d 0ec6 343e
00000050: ab45 803d 7b75 983d c3cb 1cbc e70a 663e
00000060: 6d61 2e3e 2c3d 083e 5516 1a3e fa6f a83c
00000070: 2e39 5c3e 9614 2c3e 8b4e 80bd 62d9 f23d
0.060686164 0.21818553 0.14982967 0.054171905 0.1408808 0.17240286 0.12141778 0.14458732
0.23043719 0.19198996 0.24044581 0.16687115 0.17975046 0.056311864 0.061145227 0.09987282
0.25087246 -0.17610018 0.10602191 0.17653677 0.06263288 0.074442826 -0.009570065 0.22465096
0.17029352 0.13304585 0.15047581 0.020561207 0.21506187 0.16804728 -0.06264981 0.11857869

weight f4 [16, 32, 3, 3]
00000000: ca28 ff3c 67d2 283d 0e03 2d3d 5679 323d
00000010: 49ca 933d e353 253d 54b7 8c3d 253d a13d
00000020: 7747 86bc 4613 b03d 3bf4 733d d8fe a73d
00000030: 65dc 9b3d cec3 843d 72f1 953d 78cb 9b3d
00000040: 24f4 9b3d d31d fd3c e145 0d3e 4243 993d
00000050: 28ee 993d 24ee 503d 5d9c b73d 9891 803d
00000060: f552 063e a3a1 8d3d 8061 ab3d df7e 8abc
00000070: d04d 793d 272c 823c 8888 08bc 962d b5b9
00000080: 8ab5 e8bc 7563 2a3d 923d a73d ec26 ccbc
00000090: 0b35 403d 0c02 e23d 135c 763b acc0 863c
000000a0: ac85 4c3c c155 803d 4729 8c3d df18 743d
000000b0: 0380 aa3b 84ff a73d 7987 b93d 4280 9b3d
000000c0: b637 843d b2bf 9bbb 7121 ca3d 9f64 6e3d
000000d0: 75ce 8a3d 9011 f13c 2cb7 903d 5218 c83d
000000e0: 30ca c43d 56b4 333d e947 c33d d7a4 bc3d
000000f0: 75a9 6d3d 7367 cd3d dfb5 b93d a537 a23d
00000100: bdf2 a6bc 6a9e 86bc cf19 743d 7391 913d
00000110: df80 6e3d 0c0d 853c b35c 2b3d ea48 b43d
00000120: 4939 5a3d 539d b13d a8d5 a83d 9416 de3d
00000130: 3369 773c f7ed 783d 67e7 8f3d 70ef 053d
00000140: 438c d93d 4e8b ec3d 77fd 2b3d 35dd d23d
00000150: 1ecb a73d d0e3 c23d 434b cb3d e13f bc3d
00000160: 12ab de3d d09b 8a3d f717 833d f8ea ac3c
00000170: bb65 d43d 76c5 8c3d aff7 953d 6f89 b63d
00000180: ed79 6e3d d182 e63d b4a9 113d 4843 d13d
00000190: 6212 253d cb6a a33d c213 0a3d 181d 9d3c
000001a0: 8929 dbba 54d9 9e3d a2ec 8c3d b6fc 7b3c
000001b0: 4772 a93d 4e3a 893d de9d 433d 8f1f cb3d
000001c0: e151 143d 903d 163e a840 1e3e 6e32 4d3d
000001d0: 7f7e d03d 058a c23c b8d7 3c3d 3090 473d
000001e0: bb6a 813d 6fa7 343d c73d 9c3d 1cc5 b33c
000001f0: f3b6 9f3d 8320 4b3d 2596 0f3d bb78 88bc
00000200: 50a8 ed3b 3776 a43d ab27 523d 48e5 efbc
00000210: 8a9e e1bb 815b 933c 4f48 2c3d 67f6 373d
00000220: 0b58 6a3c 594a 923c 9159 013d a3b3 fd3b
00000230: 63c9 073d 01c7 9f3d 3478 583c a6cd 423d
00000240: 27b1 753d 126a 993c 8bec 893d 9467 8d3d
00000250: cac9 a43d 26c2 003e 101d e33d e56c c13c
00000260: e82f 0d3d 8d3d 8cbd 7f0d b9bd 4bad 8dbd
00000270: 0bf0 90bd 13e2 22bc 5f43 9abd 0403 c4bd
00000280: 0b2e 8bbd 6995 35bd 8024 243d c20e a73c
00000290: fcbb 963b 7d2b 853d 3fe5 833d a57d 8d3c
000002a0: 2eab e93c ef16 793d 70c1 a13c c71f cf3d
000002b0: 2eb0 4f3d c6a7 a63d 057e cab9 a32f c63d
000002c0: 214e ca3d f8af 863d 2590 8c3d 4075 263d
000002d0: eb11 023d 189d 9d3d 0e75 ab3d b7ec 43bc
000002e0: 848d adbb 3ed4 2a3c dd52 203d ec68 633b
000002f0: 85ce 933d c593 9b3c e50d 1b3d 5419 903d
00000300: 1889 2e3d 3189 0f3d ab60 d73c f47d 973d
00000310: 0e8b 3c3c 56b5 ec3b 208e f9bc 5728 af3c
00000320: ffd3 70bc 1852 ac3b dd4b 8d3d 433e 25bd
00000330: d264 0cbc fd1b 65ba bfa5 ddbc 4736 d13d
00000340: c1a9 b13d b899 a63d 823c da3d afe0 ef3d
00000350: 2076 d83d 098f c93d f9a1 b53c 6e94 0b3d
00000360: ddaa bf3c 330f c53d 8fe7 253d 5b54 a13d
00000370: 89ab 923d d6f4 523c 2cfd b33d 18f5 d63d
00000380: a7a1 a03d 2b77 283d 9c33 633d d4cb adbc
00000390: 95b8 ce3d e279 15bb aa4f c63d 6d14 2a3d
000003a0: 5922 a83d e373 933d 15ac 843d 6add f13d
000003b0: 3784 0e3d 9285 623d 79ec cb3d f510 923d
000003c0: 0d24 923d 1945 0a3e 4ad2 9e3d 4c9e 6a3d
000003d0: a581 843d 1901 313d d4ff cabb 462e cabc
000003e0: 2116 35bb 8c12 2c3d 2005 cc3c 5e49 0ebc
000003f0: f175 5e3d 56a8 e13d 14c1 e33d a9cb 6e3d
0.03114738 0.04121628 0.04223924 0.043572746 0.07216317 0.040363204 0.068709046 0.078729905
-0.016391499 0.08597426 0.05955909 0.082029045 0.07610396 0.06482659 0.07321443 0.07607168
0.076149255 0.03089801 0.13796188 0.074835315 0.07516128 0.05100836 0.08965371 0.0627777
0.13117583 0.069155954 0.08368206 -0.0169062 0.060865223 0.015890194 -0.008333333 -0.00034556974
-0.028406877 0.041598756 0.081660405 -0.024920903 0.046925586 0.11035547 0.0037591502 0.016449295
0.012483042 0.06266356 0.068438105 0.05959403 0.0052032485 0.082030326 0.090590425 0.075928226
0.064559385 -0.0047530765 0.0986966 0.05820143 0.0677766 0.02942732 0.07066187 0.09770264
0.09608877 0.043873154 0.095352 0.09211128 0.058022935 0.10029497 0.09067892 0.079207696
-0.020379419 -0.01643296 0.059594925 0.0710782 0.05822837 0.016241573 0.04183645 0.0880297
0.053277288 0.08672585 0.08243877 0.1084415 0.015100765 0.060773816 0.07026558 0.03269905
0.10622456 0.11550008 0.04198977 0.10296098 0.081930384 0.09516108 0.099264644 0.091918714
0.10872473 0.06768 0.06401055 0.021108136 0.10370966 0.068736 0.073226325 0.08912932
0.058221746 0.1125542 0.035562232 0.10217911 0.040300734 0.079793535 0.03371025 0.019178912
-0.0016720752 0.07756296 0.068810716 0.015380075 0.0827375 0.06700574 0.047757976 0.09918129
0.0362109 0.14671922 0.15454352 0.05009692 0.10180377 0.023747453 0.046104163 0.048721492
0.06319185 0.04410499 0.076289706 0.021944575 0.07798567 0.049591552 0.0350553 -0.016659131
0.0072527304 0.0803036 0.05130736 -0.029284135 -0.0068853544 0.017987968 0.042061146 0.044912722
0.014303218 0.017857717 0.031579558 0.0077423616 0.03315104 0.07801629 0.013212252 0.047559403
0.0599834 0.018727336 0.0673457 0.069045216 0.08046301 0.12574062 0.110895276 0.023611495
0.034469515 -0.068476774 -0.09035777 -0.06917819 -0.070770346 -0.009941596 -0.07532381 -0.09570888
-0.067958914 -0.04433194 0.04007387 0.02039278 0.004600046 0.06502435 0.064402096 0.017271826
0.028524008 0.060812887 0.019745559 0.10113483 0.050705127 0.08137469 -0.00038622334 0.09677055
0.09878183 0.06576532 0.06863431 0.040639162 0.03175537 0.07695979 0.08371936 -0.011958293
-0.005296411 0.010426579 0.039141525 0.003469999 0.07217125 0.01899136 0.037855048 0.07036081
0.04261121 0.035042945 0.026291212 0.073970705 0.011507763 0.0072237654 -0.030463278 0.02138154
-0.014698981 0.00525881 0.068992354 -0.04034258 -0.008568959 -0.00087398273 -0.027056573 0.10215431
0.08674956 0.08134788 0.10656072 0.11712777 0.105694056 0.09841735 0.022171961 0.0340771
0.023396904 0.0962204 0.040504035 0.07877418 0.07161624 0.012875756 0.08788523 0.10495967
0.07843333 0.041129272 0.05546914 -0.021215357 0.100938 -0.0022808244 0.096831635 0.041523386
0.08209676 0.07199838 0.064781345 0.118098095 0.03479406 0.055303164 0.09957213 0.071321405
0.071357824 0.13502921 0.07754953 0.05727987 0.0647004 0.043213937 -0.006195048 -0.024680268
-0.0027631598 0.042009875 0.024904788 -0.008684484 0.054311696 0.11018436 0.11120811 0.058299694

bias f4 [16]
00000000: 255e 0b3e 6026 c63d a54c 883d 26a0 e2bd
00000010: d8a6 353e 23c7 173e e210 0dbe 29a0 9cbd
00000020: 6531 e23d c079 173e e059 1d3e 45ef 8d39
00000030: b2a0 423c c45f 04be 388a 2a3e 3b30 233e
0.13610132 0.09675288 0.06655244 -0.11065702 0.17739427 0.14822058 -0.13775972 -0.076477356
0.110445775 0.14792538 0.15366316 0.00027071885 0.011879133 -0.12927157 0.16654289 0.15936367

weight f4 [8, 16, 3, 3]
00000000: e1a5 bb3d bd4c e33c ce1a e13d 66e5 853d
00000010: cbc1 a9bc 30c0 153d 8072 ed3d ba94 c13d
00000020: 5235 a2bc d943 cf3d 3781 58bc 270b 9d3b
00000030: 3250 083e afe8 c73d 7f67 d53d 0600 f03d
00000040: 7178 e9ba 2f86 38bc a497 21bc cd01 d43c
00000050: bf07 bf3d 5566 0b3e 4899 783d 5a01 8c3d
00000060: 78c6 6d3d 9764 fb3d f283 3ebb 46f2 c8bd
00000070: bcd3 f7bd 3fa2 e9bd 1169 7dbd 4655 28be
00000080: bb96 1dbe 0234 afbc 7db1 98bc fb47 613d
00000090: e552 b93d 386d fabb f7b3 e23d 1b81 bf3d
000000a0: eb56 d63d cf62 b73d 40af 573d 8b41 f43b
000000b0: b501 b2bb a797 0d3e ec0d ef3d 98cb f23d
000000c0: a671 3a3d 9cd8 ed3d a9c8 8bbb b73b 9ebc
000000d0: fdc5 f53c 1a97 4a3d daa7 08bd 0da4 c7bd
000000e0: cace 0cbe 56bf eabd 7390 39be d182 e3bd
000000f0: 2a4d c03c 3045 93bd 8356 5fbd 0ad9 923d
00000100: adb5 003c 7d07 c1bc 0bc1 aabd 6897 933c
00000110: b324 c9bc 77e0 b5bd f1b7 a03d 9088 0dbd
00000120: 5f10 723d d55f fd3d fdd2 d43d 22ef ee3d
00000130: 536d 2f3d 44b3 f1bc 14b5 513b bd9d be3d
00000140: ccd1 033e 6e7c ae3c 4aa4 453d be7f 0f3c
00000150: dcc8 aa3d bc28 7dbc dc26 b03d a978 213d
00000160: 597c b83d 36a5 da3d 4a68 c23d 5cec c33d
00000170: eded 1b3d c072 8e3d 304f e63b f099 d23d
00000180: 6954 1d3d 8d8a 413d 3c8b f73d 801b d63b
00000190: 9473 a3bc 6739 76bd 3add 9e3d addc 6c3b
000001a0: 5335 5bbd 1cc0 74bd 9834 81bd 2d9f c6bc
000001b0: efb5 833c 2ef3 723c 04dc 9f3d c2bb 81bc
000001c0: 1e04 9bbd 00bf 8fbd 900c 343d bad3 a7bd
000001d0: 8bb4 e33c 56dd 74bd 9615 40be 7448 1bbe
000001e0: 6cbf 0cbb 4b00 4dbe 38c5 2bbe 73d9 2f3d
000001f0: 29ad 5abc a96b 963d 548b 053e 4a76 683d
00000200: 0983 9cbb 375b 9c3d 6759 aabb 1932 443d
00000210: 8503 0d3e bf64 e13c a61b 0e3e 9358 e03c
00000220: 03c9 0fbb 437f 0ebb a303 073e adce e6bc
00000230: 29c3 423d 05c0 b1bb 3d3b 593d a134 db3d
00000240: c855 07bd 0d3e b43d ef90 43bc d8ba 053d
00000250: a13f eb3c 47ea 6b3c c251 2ebc 71b0 90bc
00000260: cbad a83c 0678 7e3d 65ba bd3c 53d8 713d
00000270: cb6e a73d a3b4 0dbc 1ca1 93bd db7c 9d3d
00000280: af2f 2e3d d1a4 6abd fdcd 363e 37c0 5fbd
00000290: a0c9 b23d 7b12 93bc 5e76 8cbe 2e69 06bd
000002a0: 8ca9 35bb efc1 03be 3b93 6a3a 4715 edbd
000002b0: 86ec 3c3d d9c1 bebd 6b96 363c 7790 413e
000002c0: 6f11 103e c173 f3bd c358 983d 1f5d 00bd
000002d0: 7661 a13d 5618 94bd fded 813d d1f2 9abd
000002e0: 9b21 c0bc 3715 63bb 588b b43d 8552 b5bd
000002f0: 259d c4bc 14ab af3c 3c0d aebc 3e69 85bd
00000300: 122b a9bc 1231 6ebd 51d7 51bd 5056 0fbd
00000310: b838 99bd 3e1f acbc 1920 3bbd 33dc b53d
00000320: 894e e83c f0ca ca3b d4bd 883d 7f4f bf3d
00000330: 485c 5fbc f06c 223e b5cb d4bc 3cb1 063d
00000340: 5e58 5a3d 5558 6d3d b64f 4d3c 777f 10bd
00000350: f891 e7bc 2c08 44bd 6786 dd3b a3f7 4d3d
00000360: 1b05 323e ad41 ec3d ac58 2f3e 3529 4d3d
00000370: b1e3 d6bd 5529 adbd a90f 233e 31a1 c5bd
00000380: df4d 0dbc a7dd ba3d 3604 52bb 695b 083d
00000390: c159 9a3d 628e 92bd 7576 3a3c 6753 4e3d
000003a0: 23da 3bbd b3c7 e5bc af1b aabd 4a31 5b3d
000003b0: 223e adbd 344e 89bd 25d7 023d a04a e5bd
000003c0: 010b 35bd a7d4 52bd 64f2 6dbd 7b24 783d
000003d0: bfbc a2bd 7b8e 81bd 8652 b33c 4365 1d3d
000003e0: e848 233d 6395 d7bc af73 053c 3d81 2b3d
000003f0: da97 1f3d 5fd5 c43c 0ede a53d 8694 a4bd
0.09162498 0.027746553 0.10991441 0.06537895 -0.02072229 0.036560237 0.11594105 0.094521955
-0.019800816 0.10120363 -0.013214401 0.004792589 0.13311842 0.09761178 0.10420131 0.117187545
-0.0017812384 -0.011262461 -0.009862814 0.025879765 0.09327649 0.13613255 0.060693055 0.06836195
0.058050603 0.12275045 -0.0029070345 -0.09811835 -0.12100932 -0.11407899 -0.061867777 -0.16438779
-0.1538953 -0.021387104 -0.01863932 0.055000287 0.09049014 -0.0076424144 0.11069482 0.09350797
0.10465797 0.08954393 0.052657366 0.0074541024 -0.0054323324 0.13827382 0.11672577 0.11855239
0.04551854 0.116135806 -0.004265864 -0.019315584 0.030001635 0.049460508 -0.0333632 -0.09748087
-0.13750759 -0.11462276 -0.18121509 -0.111089356 0.023474295 -0.07190931 -0.054525863 0.07170303
0.007855815 -0.023563141 -0.08337601 0.018016532 -0.024553632 -0.08880704 0.07847584 -0.034554064
0.059097644 0.12371794 0.10391805 0.11666705 0.04282887 -0.029504426 0.00319988 0.0930743
0.12873 0.021299567 0.04825238 0.008758483 0.08339092 -0.015451606 0.08601162 0.03942171
0.090080924 0.10676043 0.09492548 0.09566566 0.0380687 0.069554806 0.007028483 0.102832675
0.038410578 0.047251273 0.12087104 0.00653404 -0.019952573 -0.060113337 0.07757039 0.0036142275
-0.05351765 -0.059753522 -0.063088596 -0.024245823 0.016077964 0.014828486 0.078056365 -0.0158366
-0.07569145 -0.07018852 0.043957293 -0.081946805 0.02779605 -0.059781395 -0.18758234 -0.15164357
-0.00214764 -0.20019643 -0.16774452 0.042931985 -0.013346949 0.07344753 0.1304143 0.056753434
-0.004776363 0.07634585 -0.005198646 0.04789934 0.13770874 0.02751386 0.13877735 0.027385985
-0.002193988 -0.0021743334 0.13184981 -0.028174723 0.0475494 -0.005424502 0.05303501 0.107033975
-0.03304079 0.08800898 -0.01193641 0.03264889 0.028716864 0.014399118 -0.01063961 -0.017662259
0.020590683 0.062126182 0.023160169 0.059044193 0.08175429 -0.008649024 -0.072084635 0.0768983
0.042525943 -0.057286087 0.17852016 -0.05462667 0.08729863 -0.017953148 -0.27434057 -0.03281515
-0.0027719466 -0.12866949 0.00089483307 -0.11576324 0.046124004 -0.09314317 0.011144261 0.18902765
0.1406915 -0.11887313 0.07438805 -0.031338807 0.07879917 -0.07231204 0.06344221 -0.07565845
-0.023453524 -0.0034650096 0.0881564 -0.0885363 -0.024000714 0.021443881 -0.021246545 -0.06514214
-0.02065042 -0.058152266 -0.051230732 -0.034994423 -0.07481521 -0.021010991 -0.045684908 0.0887989
0.028357761 0.006188743 0.06676832 0.093413346 -0.013632841 0.15861869 -0.025976041 0.032883868
0.05330693 0.057945568 0.012531212 -0.03527781 -0.028267846 -0.047859356 0.006760407 0.050284993
0.1738476 0.11535964 0.1712367 0.050088126 -0.104926474 -0.08455149 0.15923943 -0.096498854
-0.008624523 0.09124308 -0.0032045967 0.0332903 0.075366504 -0.071560636 0.011380781 0.050372507
-0.04586233 -0.028049326 -0.083060615 0.053513803 -0.084591165 -0.06704369 0.03194346 -0.11195874
-0.044199947 -0.051472332 -0.05809249 0.060581665 -0.07946157 -0.06326004 0.021889936 0.03842665
0.03986445 -0.02631635 0.008145257 0.041871298 0.038963176 0.024027525 0.08098994 -0.08036141

bias f4 [8]
00000000: d5e1 f53d 0741 57be 0dd9 b13d 5b47 b1bd
00000010: 320c d53d 4ec5 c73d b001 f33d 70a5 ae3d
0.12005965 -0.210209 0.08683977 -0.08656188 0.10402717 0.0975443 0.11865556 0.085276484
